…
To enable them in other operations, rebuild TensorFlow with the appropriate compiler flags.
2024-01-10 00:20:43.876409: I tensorflow/core/common_runtime/gpu/gpu_device.cc:1532] Created device /job:localhost/replica:0/task:0/device:GPU:0 with 5473 MB memory:  -> device: 0, name: NVIDIA GeForce RTX 3070 Laptop GPU, pci bus id: 0000:01:00.0, compute capability: 8.6
Model: "sequential"
_________________________________________________________________
 Layer (type)                Output Shape              Param #
=================================================================
 conv2d (Conv2D)             (None, 32, 32, 32)        896

 activation (Activation)     (None, 32, 32, 32)        0

 conv2d_1 (Conv2D)           (None, 30, 30, 32)        9248

 activation_1 (Activation)   (None, 30, 30, 32)        0

 max_pooling2d (MaxPooling2D  (None, 15, 15, 32)       0
 )

 dropout (Dropout)           (None, 15, 15, 32)        0

 conv2d_2 (Conv2D)           (None, 15, 15, 64)        18496

 activation_2 (Activation)   (None, 15, 15, 64)        0

 conv2d_3 (Conv2D)           (None, 13, 13, 64)        36928

 activation_3 (Activation)   (None, 13, 13, 64)        0

 max_pooling2d_1 (MaxPooling  (None, 6, 6, 64)         0
 2D)

 dropout_1 (Dropout)         (None, 6, 6, 64)          0

 flatten (Flatten)           (None, 2304)              0

 dense (Dense)               (None, 512)               1180160

 activation_4 (Activation)   (None, 512)               0

 dropout_2 (Dropout)         (None, 512)               0

 dense_1 (Dense)             (None, 10)                5130

 activation_5 (Activation)   (None, 10)                0

=================================================================
Total params: 1,250,858
Trainable params: 1,250,858
Non-trainable params: 0
_________________________________________________________________
未使用数据增强。
2024-01-10 00:20:44.473900: W tensorflow/core/framework/cpu_allocator_impl.cc:82] Allocation of 614400000 exceeds 10% of free system memory.
Epoch 1/60
2024-01-10 00:20:45.864121: I tensorflow/stream_executor/cuda/cuda_dnn.cc:384] Loaded cuDNN version 8902
…
